saved model/modelEIT.onnx (onnx, 283624 bytes, 10 tensors)

model/dense_2/MatMul/ReadVariableOp:0 f4 [64, 10]
0.38456398 0.24151975 -0.14113182 -0.023903565 0.10100603 -0.58062243 -0.010818327 0.2827743
0.31511953 0.13599843 -0.6792479 -0.06709639 -0.16701786 -0.008414747 -0.10940029 0.2714932
0.35314792 0.017834581 -0.56950706 0.44007555 -0.6563125 0.19006272 -0.29869702 0.13331367
-0.09083713 0.32172558 -0.12683298 -0.5097732 -0.40266207 0.39709488 0.23261894 0.37958273
0.09873418 -0.49105912 -0.36891004 0.017659705 -0.005969975 0.28870717 0.2293926 -0.47131154
-0.29435104 -0.0049600736 0.019788876 0.08539206 -0.13761707 0.12562303 0.16465707 -0.25041965
-0.5251793 -0.2571831 -0.34673855 -0.51189315 -0.782774 -0.1157189 0.022004053 0.45139503
0.2901074 -0.22527279 -0.06259748 -0.28395426 -0.38262248 0.1293659 -0.1335523 -0.12178465
-0.86834526 0.0848223 0.0037010673 0.07238319 0.20261753 0.37663516 0.23599593 0.27806422
0.24755912 0.367268 -0.046720274 -0.22012079 0.101956315 -0.19664475 -0.31461406 -0.45616257
-0.12822929 0.19868135 0.17944111 -0.030241253 0.041157607 0.3059893 -0.040608212 -0.7504531
-0.75035506 0.1138035 -0.1802749 0.24432288 -0.035035763 0.4284292 -0.20016374 -0.53814125
0.34918326 0.026282221 0.092952885 -0.31594566 -0.012700192 -0.38982084 0.43211547 -0.28273538
0.08502184 -0.51371646 -0.19003622 -0.34357658 -0.12290811 0.3239009 0.102277614 -0.4174348
-0.09579797 0.17956558 -0.021858407 -0.24384217 0.13742226 0.34043753 0.24026759 0.36106634
-0.3978387 0.30259618 -0.4228231 0.03131232 0.24358396 -0.63279724 0.029599333 -0.66473347
0.38339627 0.21107492 -0.081667125 0.049310364 0.2615345 0.28463012 -0.07306557 0.059724133
-0.17230402 -0.24125385 -0.2928683 -0.5540004 0.28757226 0.08549694 0.1342077 0.027797729
-0.58992356 -0.13982771 -0.38642874 0.19378379 0.18363631 -0.23651215 0.03642121 0.20949525
0.33078572 0.0771047 0.21228282 -0.23725322 0.18538713 -0.010860755 -0.063266665 -0.25171036
-0.21827863 0.02297793 0.40118596 -0.08225921 0.15979664 -0.09363409 -0.14926115 -0.23503278
-0.6860584 -0.107946105 -0.3257963 -0.10084319 -0.27341738 0.26689008 0.1871146 0.17639709
-0.2298098 -0.46932334 -0.38735068 0.3592126 -0.6184391 0.14310762 0.3011722 -0.2783898
-0.057583313 -0.61290234 0.25569794 -0.11664798 0.008611361 0.06384085 -0.0029498937 -0.18168141
0.079056375 -0.1852425 0.31471553 0.21116488 0.22324263 0.21434088 -0.3982049 -0.41048673
0.25001448 -0.45931652 0.23357749 -0.42989576 0.42313892 -0.27205738 -0.4671376 -0.39614922
0.32580495 -0.15525898 -0.36174405 0.1518926 0.17786528 -0.68753153 0.30434963 0.12032558
0.16927718 0.2727771 0.070623115 0.2124739 -0.37199396 -0.6577612 -0.356315 0.08071614
0.31223673 0.1292805 0.26409644 0.0145761585 -0.27863953 -0.5108706 0.28143954 0.042327136
-0.47067988 -0.6220153 0.257667 -0.21378699 0.03200844 0.3315707 -0.17887549 -0.12664595
0.17670982 -0.31846294 0.29889113 -0.122729644 0.030486153 -0.03439732 -0.09824204 0.03220026
-0.2566627 -0.24847665 -0.059624575 -0.60388553 -0.29312006 0.30304393 -0.089802906 -0.27358103
00000000: 92e5 c43e f450 773e dc84 10be 69d1 c3bc
00000010: 40dc ce3d aca3 14bf 5a3f 31bc cbc7 903e
00000020: 5957 a13e 2c43 0b3e 31e3 2dbf d569 89bd
00000030: bb06 2bbe 02de 09bc 420d e0bd 2801 8b3e
00000040: cecf b43e d419 923c 37cb 11bf 9551 e13e
00000050: 1904 28bf cd9f 423e d1ee 98be 6183 083e
00000060: d108 babd 37b9 a43e 81e0 01be 7f80 02bf
00000070: b929 cebe 0550 cb3e a933 6e3e ab58 c23e
00000080: 2535 ca3d 1a6c fbbe c7e1 bcbe 16ab 903c
00000090: c89f c3bb 6dd1 933e e5e5 6a3e bf4f f1be
000000a0: 2eb5 96be 1d88 a2bb 481c a23c 08e2 ae3d
000000b0: 7deb 0cbe 53a3 003e dd9b 283e 0137 80be
000000c0: 2772 06bf 81ad 83be b787 b1be 6e0b 03bf
000000d0: e063 48bf 08fe ecbd d841 b43c 401d e73e
000000e0: f588 943e e9ad 66be 1c33 80bd 7462 91be
000000f0: 18e7 c3be 7f78 043e efc1 08be 3b6a f9bd
00000100: e04b 5ebf 50b7 ad3d 9b8d 723b a33d 943d
00000110: f87a 4f3e 53d6 c03e eba8 713e 6f5e 8e3e
00000120: 2380 7d3e 8d0a bc3e c25d 3fbd 5867 61be
00000130: 79ce d03d 3e5d 49be 1815 a1be 248e e9be
00000140: 8a4e 03be 2073 4b3e 69bf 373e 81bc f7bc
00000150: e194 283d a1aa 9c3e cc54 26bd b21d 40bf
00000160: 4517 40bf cf11 e93d fc99 38be c72f 7a3e
00000170: a981 0fbd 125b db3e b9f7 4cbe a0c3 09bf
00000180: 26c8 b23e d04d d73c 155e be3d a1c3 a1be
00000190: 7714 50bc 9996 c7be 3d3e dd3e b1c2 90be
000001a0: ee1f ae3d ec82 03bf db98 42be 45e9 afbe
000001b0: 3fb7 fbbd 57d6 a53e ed76 d13d 04ba d5be
000001c0: ba31 c4bd 0ae0 373e 6710 b3bc c3b1 79be
000001d0: 6cb8 0c3e d44d ae3e b508 763e b0dd b83e
000001e0: 84b1 cbbe e3ed 9a3e 457c d8be 5941 003d
000001f0: 136e 793e 00ff 21bf 4d7a f23c f92b 2abf
00000200: 844c c43e 0624 583e 1841 a7bd aaf9 493d
00000210: dae7 853e 0abb 913e 67a3 95bd 4ba1 743d
00000220: 7770 30be 400b 77be d5f2 95be f8d2 0dbf
00000230: ac3c 933e 0519 af3d be6d 093e 10b8 e33c
00000240: 3b05 17bf ff2e 0fbe fdd9 c5be 426f 463e
00000250: 280b 3c3e 3e30 72be 682e 153d ec85 563e
00000260: bf5c a93e 12e9 9d3d ab60 593e 82f2 72be
00000270: 20d6 3d3e 4ff1 31bc f491 81bd 2ee0 80be
00000280: 6f84 5fbe 363c bc3c 3f68 cd3e 8477 a8bd
00000290: bba1 233e 3bc3 bfbd ead7 18be 6fac 70be
000002a0: 86a1 2fbf d912 ddbd c6ce a6be e086 cebd
000002b0: 5dfd 8bbe d1a5 883e f89a 3f3e 70a1 343e
000002c0: 4353 6bbe 264b f0be d452 c6be b7ea b73e
000002d0: 0652 1ebf ce8a 123e 3e33 9a3e 1c89 8ebe
000002e0: 7bdc 6bbd 2be7 1cbf d7ea 823e 23e5 eebd
000002f0: aa16 0d3c febe 823d 0153 41bb b10a 3abe
00000300: 4fe8 a13d 36b0 3dbe 6522 a13e 9b3b 583e
00000310: b799 643e 2d7c 5b3e 83e1 cbbe 512b d2be
00000320: e601 803e 892b ebbe f02e 6f3e 4c1b dcbe
00000330: aaa5 d83e 1b4b 8bbe a92c efbe 12d4 cabe
00000340: e8cf a63e 36fc 1ebe 8436 b9be bc89 1b3e
00000350: 5122 363e 1102 30bf b7d3 9b3e 426d f63d
00000360: ff56 2d3e 71a9 8b3e daa2 903d c292 593e
00000370: fe75 bebe 0a63 28bf eb6e b6be 814e a53d
00000380: 7edd 9f3e 1b62 043e a637 873e d7d0 6e3c
00000390: d7a9 8ebe 6ac8 02bf d818 903e 385f 2d3d
000003a0: f4fc f0be 653c 1fbf eeec 833e faea 5abe
000003b0: 481b 033d a3c3 a93e 232b 37be 7aaf 01be
000003c0: 6bf3 343e 930d a3be 4208 993e ae59 fbbd
000003d0: 19be f93c 34e4 0cbd 1f33 c9bd 6be4 033d
000003e0: 4b69 83be aa70 7ebe e638 74bd 3e98 1abf
000003f0: d513 96be 9328 9b3e 96ea b7bd d012 8cbe

model/dense_2/BiasAdd/ReadVariableOp:0 f4 [10]
-0.06852074 -0.102630235 0.1061026 0.032706346 -0.000220688 -0.027759513 0.057182662 -0.050163127
0.010586373 -0.049460366
00000000: 9a54 8cbd cd2f d2bd 524c d93d 17f7 053d
00000010: 7c68 67b9 eb67 e3bc 5e38 6a3d da77 4dbd
00000020: 7772 2d3c f496 4abd

model/dense_1/MatMul/ReadVariableOp:0 f4 [128, 64]
-0.043081727 -0.5786641 -0.0784711 -0.0995088 0.025747754 -0.2989695 -0.06647567 0.18266901
-0.083397776 0.056745585 -0.029238278 -0.036290444 0.019855455 -0.1729963 -0.19394965 0.045299526
-0.04902695 -0.11400947 -0.095649615 0.2880292 -0.17663157 0.10197954 -0.20473038 -0.23201805
-0.00807874 -0.1678923 0.03784961 0.15347035 0.010985204 -0.2693062 0.07091079 0.25257856
-0.10679525 0.061440792 -0.2581794 0.12995157 -0.06358553 -0.15135151 -0.15407078 -0.09201738
-0.0040642577 -0.0944584 0.06682712 0.06604239 0.08186292 0.18662606 0.0067247264 0.016957473
0.11575616 0.03654404 -0.06034625 0.31620505 0.14355196 0.21749988 0.08098356 0.20908502
0.17426519 0.06678741 0.07400047 -0.12164055 -0.03224627 -0.053238377 -0.06354735 -0.22613797
0.25673357 -0.2947636 0.18959188 0.06477239 0.25007397 -0.0070317797 0.2177084 -0.18898576
0.2480732 0.21190986 0.08391559 0.109664164 0.10553733 0.08713489 -0.17671597 -0.056123637
0.13998921 -0.13768981 -0.04938716 0.074052945 0.13294409 0.29277828 -0.049513366 -0.23065591
0.08490469 -0.13889673 0.1278725 -0.16651413 0.108408526 -0.3604692 -0.3423625 -0.12267482
-0.16053224 0.017967038 0.048441317 -0.1286056 0.026875181 -0.07488211 0.2189501 -0.1208819
0.40704423 -0.03770543 0.03927382 0.19969893 0.06078654 -0.17973463 0.087185085 0.051817533
-0.14452706 -0.2505144 0.01868114 0.0008809393 0.07569707 0.26942217 -0.03652322 0.34274238
0.21215 -0.0768752 -0.058473036 -0.16687863 -0.083186366 -0.37279055 -0.20865025 0.08862967
0.09026001 0.29515243 0.21704413 -0.048171047 0.20944288 -0.092203245 0.21177879 -0.059252422
0.22275205 -0.0021862092 0.24574329 0.06950572 -0.08703586 -0.2222077 -0.0058166934 -0.036713574
-0.07653851 -0.27996987 -0.21495187 0.20533213 0.03294889 0.21919636 0.0817325 -0.21619162
0.07219952 -0.25404358 0.20151179 -0.08427523 0.22178043 0.07602701 0.19407082 0.22633715
0.018984279 0.0588445 0.13256711 -0.036953017 -0.14324144 0.17466831 -0.14328821 -0.07791194
0.088466085 0.054914113 0.14957201 -0.3931278 -0.05908875 0.015994102 0.19430797 -0.050571114
0.040208586 -0.24901775 -0.48338968 -0.31598213 -0.06913857 0.13161826 0.07308342 -0.16003616
-0.5074908 0.07431503 0.110665254 -0.09074139 0.031738184 0.22302632 -0.19609506 -0.4781168
0.2481752 0.018736592 0.24119346 0.2664236 -0.44932488 0.24280968 0.20272036 0.0755653
0.097796515 0.027475366 0.071478345 0.12902103 -0.16165385 -0.04165199 0.18502693 0.005176365
-0.42774728 -0.14504173 -0.26623422 -0.018004343 0.0180971 0.17945181 0.17269813 -0.062537186
0.02835883 0.06497496 0.045920372 -0.18338485 0.00968938 -0.39630815 0.31679755 0.025631009
-0.22617294 0.021952175 -0.012654693 -0.21929866 0.14918274 0.032539017 0.20417278 -0.11656142
0.13215105 0.080103114 -0.06472104 0.07559014 -0.0022585413 -0.080320984 0.1484259 -0.12398525
-0.26923445 0.008522522 -0.1066447 -0.1667864 0.12290949 -0.13102049 -0.07861261 0.059181366
-0.07866179 -0.39401296 0.01074043 -0.36381745 -0.12940095 -0.34096044 -0.26894158 0.09335404
00000000: 7776 30bd 5523 14bf 75b5 a0bd 45cb cbbd
00000010: f4ec d23c 8812 99be 6524 88bd 960d 3b3e
00000020: 74cc aabd 0f6e 683d 1d85 efbc 4aa5 14bd
00000030: e8a7 a23c f125 31be bd9a 46be ff8b 393d
00000040: 7cd0 48bd cc7d e9bd f2e3 c3bd 9078 933e
00000050: e8de 34be a6da d03d d7a4 51be 2496 6dbe
00000060: b15c 04bc f6eb 2bbe 3108 1b3d 5527 1d3e
00000070: 49fb 333c 81e2 89be ad39 913d fa51 813e
00000080: 78b7 dabd 57a9 7b3d 1730 84be 0612 053e
00000090: 2139 82bd e4fb 1abe bbc4 1dbe 9c73 bcbd
000000a0: 772d 85bb 6873 c1bd a8dc 883d 3c41 873d
000000b0: bfa7 a73d e71a 3f3e 185b dc3b 66ea 8a3c
000000c0: 9111 ed3d 34af 153d a12d 77bd a1e5 a13e
000000d0: 49ff 123e 4ab8 5e3e b5da a53d 621a 563e
000000e0: 9372 323e d6c7 883d 8f8d 973d ae1e f9bd
000000f0: aa14 04bd 7c10 5abd 1d25 82bd b690 67be
00000100: 9572 833e 41eb 96be 6024 423e 63a7 843d
00000110: b209 803e d86a e6bb f3ee 5e3e 7c85 41be
00000120: e706 7e3e e6fe 583e f0db ab3d 9b97 e03d
00000130: f523 d83d c773 b23d 08f5 34be e6e1 65bd
00000140: 5559 0f3e 8ffe 0cbe 314a 4abd 12a9 973d
00000150: 7f22 083e 09e7 953e 87ce 4abd 1031 6cbe
00000160: 83e2 ad3d f23a 0ebe 02f1 023e ae82 2abe
00000170: 4a05 de3d 6b8f b8be 234a afbe f03c fbbd
00000180: 9062 24be 9c2f 933c 676a 463d 30b1 03be
00000190: 5729 dc3c cb5b 99bd 7434 603e ee90 f7bd
000001a0: 1a68 d03e 0271 1abd 96dd 203d e07d 4c3e
000001b0: 4ffb 783d 5b0c 38be 188e b23d 9f3e 543d
000001c0: e7fe 13be 6c43 80be 3109 993c d6ee 663a
000001d0: 1107 9b3d b4f1 893e 5f99 15bd ee7b af3e
000001e0: d93d 593e bf70 9dbd 6c81 6fbd 3be2 2abe
000001f0: 9d5d aabd 67de bebe 69a8 55be 7983 b53d
00000200: 3dda b83d 381e 973e d140 5e3e 014f 45bd
00000210: 3278 563e 0ed5 bcbd 8adc 583e abb2 72bd
00000220: 1d19 643e 8146 0fbb 21a4 7b3e 0459 8e3d
00000230: db3f b2bd 6a8a 63be f699 bebb f960 16bd
00000240: 39c0 9cbd 3658 8fbe 581c 5cbe 9642 523e
00000250: 6af5 063d 0375 603e 5e63 a73d 5661 5dbe
00000260: 58dd 933d 0012 82be 1b59 4e3e 7e98 acbd
00000270: 691a 633e 0db4 9b3d 80ba 463e edc4 673e
00000280: eb84 9b3c ee06 713d acbf 073e 0c5c 17bd
00000290: e2ad 12be 40dc 323e 25ba 12be 4c90 9fbd
000002a0: b52d b53d 9fed 603d 6829 193e 0c48 c9be
000002b0: 0c07 72bd 1006 833c abf8 463e a823 4fbd
000002c0: c2b1 243d 82fe 7ebe da7e f7be 69c8 a1be
000002d0: 8698 8dbd f0c6 063e c3ac 953d 85e0 23be
000002e0: ebea 01bf 7a32 983d 77a4 e23d 9fd6 b9bd
000002f0: e6ff 013d 0361 643e 25cd 48be bacb f4be
00000300: a421 7e3e 7b7d 993c 6bfb 763e ad68 883e
00000310: e90d e6be 1aa3 783e ed95 4f3e fbc1 9a3d
00000320: 8a49 c83d 0514 e13c 3d63 923d 171e 043e
00000330: 9688 25be 479b 2abd b377 3d3e 7f9e a93b
00000340: b101 dbbe d285 14be da4f 88be d87d 93bc
00000350: 5f40 943c 37c2 373e c7d7 303e 7f13 80bd
00000360: c750 e83c 9811 853d 0017 3c3d 3dc9 3bbe
00000370: 35c0 1e3c e7e8 cabe 4a33 a23e 1ff8 d13c
00000380: e199 67be 0cd5 b33c a155 4fbc d48f 60be
00000390: 5cc3 183e a247 053d ab12 513e c1b7 eebd
000003a0: 9b52 073e 1a0d a43d 778c 84bd 01cf 9a3d
000003b0: 0904 14bb 547f a4bd f6fc 173e fbeb fdbd
000003c0: 19d9 89be 0ca2 0b3c 8968 dabd 0eca 2abe
000003d0: f8b7 fb3d 3c2a 06be a6ff a0bd 2968 723d
000003e0: 6f19 a1bd 11bc c9be a1f8 2f3c 4846 babe
000003f0: af81 04be 5e92 aebe b6b2 89be 6730 bf3d

model/dense_1/BiasAdd/ReadVariableOp:0 f4 [64]
0.059998643 -0.07198338 0.060361207 0.045419 0.010097668 0.15161134 -0.033296026 0.06309298
-0.027957354 0.08362523 0.061601475 0.103965536 -0.027028386 0.085912526 0.06679182 0.03725343
-0.005887311 -0.10686033 0.016384734 -0.006019775 0.008916368 0.059550755 0.011319789 -0.14283882
-0.031966746 -0.10871627 0.0006949174 -0.076161355 -0.037367094 0.06431715 -0.039580125 -0.04581595
0.04375218 0.044797108 -0.03844102 -0.021499202 0.15363586 -0.04199562 -0.008024525 0.07824065
0.03067685 -0.07433739 -0.012924821 0.10235203 0.0020469995 0.026719775 -0.14290522 0.05285116
0.10201471 -0.08774736 -0.16884054 -0.096397676 0.03532639 0.09861018 -0.031927876 0.0031522417
-0.07834157 -0.0031569086 0.019549415 -0.007098254 -0.023701817 -0.022501605 0.062051874 -0.14694302
00000000: 23c1 753d 066c 93bd 503d 773d 4609 3a3d
00000010: b070 253c 0140 1b3e 6a61 08bd e436 813d
00000020: d206 e5bc b443 ab3d d451 7c3d e2eb d43d
00000030: a26a ddbc e8f2 af3d 26ca 883d 0d97 183d
00000040: 58ea c0bb 97d9 dabd 4739 863c 8841 c5bb
00000050: f515 123c 7eeb 733d a376 393c 5744 12be
00000060: 90ef 02bd a3a6 debd 1e2b 363a 7cfa 9bbd
00000070: 3d0e 19bd b6b8 833d c51e 22bd 81a9 3bbd
00000080: 7c35 333d 2c7d 373d 5574 1dbd 181f b0bc
00000090: b852 1d3e 9903 2cbd 4c79 03bc a23c a03d
000000a0: 044e fb3c 343e 98bd a1c2 53bc f19d d13d
000000b0: f426 063b 6ee3 da3c bf55 12be 757a 583d
000000c0: 17ed d03d e3b4 b3bd 89e4 2cbe 256c c5bd
000000d0: 68b2 103d 22f4 c93d cec6 02bd d795 4e3b
000000e0: 8c71 a0bd 23e4 4ebb 1826 a03c 7898 e8bb
000000f0: 502a c2bc 4955 b8bc 1b2a 7e3d 3b78 16be

model/dense/MatMul/ReadVariableOp:0 f4 [475, 128]
-0.11946039 -0.30225265 -0.16988127 -0.15426016 -0.2364948 -0.18079528 0.04145005 -0.04083337
-0.27898362 0.055204112 0.08498144 -0.11554045 0.0433409 -0.020924844 -0.16037507 0.015864674
-0.34204522 -0.08594791 -0.29880422 0.06253237 -0.15579107 -0.030804541 0.29273862 -0.08866847
-0.186499 -0.3271671 -0.28576317 -0.13899215 -0.0563467 0.052918352 -0.2784334 -0.049869016
-0.084008746 0.11640357 -0.20000254 -0.23657744 0.12656455 -0.0194997 -0.06704863 0.17810269
0.2009031 -0.16866587 0.0023421645 0.034942623 -0.00010478677 -0.3220336 0.35608056 -0.13763748
-0.16606995 0.25729427 0.13103452 -0.037412368 -0.20640665 -0.19396164 -0.019487392 0.003387119
0.4678363 -0.06938974 0.007831572 0.069962166 0.118966065 -0.059107233 -0.43155175 -0.2311934
0.0025504415 0.03871124 -0.08390596 0.24609703 -0.05186472 0.13631837 -0.20093021 0.23414725
-0.17842981 -0.107853055 0.04766284 -0.06595613 -0.05150147 0.27531755 0.17244919 -0.03254767
0.15004449 -0.32242116 0.32743284 -0.11305365 -0.29588825 -0.089616135 -0.20855488 -0.1043744
0.3729525 0.097310066 0.11811507 0.082964584 -0.16106652 -0.020418702 0.0826708 0.019003976
0.08417074 -0.36597222 0.0013284804 -0.12235844 0.05520469 0.045693558 -0.3594307 -0.22242591
-0.10332719 0.21698818 0.59426665 0.1046664 -0.4076497 -0.17703766 -0.108805984 -0.18283883
-0.14637156 0.57030237 0.056951858 -0.070303604 -0.3378733 -0.060526002 -0.027453857 0.8289468
0.54867893 -0.054560136 0.01516747 -0.022497287 -0.13549791 0.049146183 -0.21097292 -0.15837336
0.017456464 0.10851271 -0.015311273 -0.122371025 -0.012218027 -0.39112896 0.213667 0.03688621
0.16503598 -0.1122792 -0.10547347 -0.087836705 0.12927675 -0.10417156 0.13786906 0.18026602
0.091041766 -0.00037848932 0.18110701 0.103692986 0.0011285006 -0.41857982 -0.13454455 0.16962208
0.049664892 0.15534681 0.10917766 -0.09842208 -0.098686606 0.07642225 0.0029148872 -0.051137548
0.13989262 0.2965885 0.1469907 -0.050155386 0.051890444 -0.089786656 -0.3355359 -0.14148794
0.26228583 -0.11924427 0.18631737 -0.0262172 0.24330914 -0.03854135 -0.061104126 0.26219863
-0.042061836 -0.06566816 -0.036643106 -0.04308105 0.0708648 0.15177289 -0.015475629 -0.06414146
0.11853499 -0.10584179 0.02190225 0.08525678 0.011399429 0.08027183 0.1292946 0.086151674
-0.008965096 -0.18593952 0.123888664 0.14072691 0.18071356 0.25443253 -0.022788942 0.1496199
-0.18903586 -0.065432765 0.13910587 0.01546603 -0.06933717 -0.19474821 -0.35280904 -0.20576037
-0.1480922 -0.009331631 -0.016299332 -0.0741142 0.14149046 0.19396286 -0.134802 -0.38007638
-0.2302075 -0.053942144 -0.3013081 -0.21501803 0.046263963 -0.34597182 -0.0036039348 0.1905707
0.0056533027 -0.014033194 -0.21751904 0.09688491 0.06573499 -0.22633532 -0.10785786 -0.08583712
0.06357072 -0.08381913 -0.22045536 -0.08220507 0.1677609 0.20608155 -0.1523313 0.10994227
0.15838721 -0.35024884 -0.031552576 -0.10892503 -0.10173242 0.039450943 -0.09503228 -0.043759067
-0.21917832 -0.20695336 0.094471686 -0.15710233 0.0116029 -0.10334064 0.06586609 0.08316002
00000000: a6a7 f4bd dcc0 9abe 5bf5 2dbe 60f6 1dbe
00000010: b12b 72be 6622 39be 87c7 293d e440 27bd
00000020: f1d6 8ebe b51d 623d c00a ae3d 79a0 ecbd
00000030: 3a86 313d 946a abbc 5d39 24be a2f6 813c
00000040: 8d20 afbe 7505 b0bd defc 98be f910 803d
00000050: b287 1fbe ce59 fcbc d6e1 953e d197 b5bd
00000060: 98f9 3ebe 7282 a7be 8d4f 92be f553 0ebe
00000070: cccb 66bd eac0 583d d38e 8ebe 7443 4cbd
00000080: c70c acbd ff64 ee3d 77cd 4cbe 5b41 72be
00000090: 239a 013e d6bd 9fbc cb50 89bd 8d60 363e
000000a0: 8bb9 4d3e bfb6 2cbe 007f 193b ff1f 0f3d
000000b0: f8c0 dbb8 97e1 a4be 3150 b63e d7f0 0cbe
000000c0: 3e0e 2abe 13bc 833e ea2d 063e b63d 19bd
000000d0: 445c 53be e19d 46be 06a4 9fbc 6dfa 5d3b
000000e0: 3d88 ef3e 351c 8ebd fe4f 003c 5348 8f3d
000000f0: 7ba4 f33d 6d1a 72bd 5af4 dcbe f6bd 6cbe
00000100: 4f25 273b ad8f 1e3d e3d6 abbd dc00 7c3e
00000110: 1a70 54bd 0b97 0b3e a6c0 4dbe 4cc4 6f3e
00000120: 4eb6 36be 10e2 dcbd 1c3a 433d 0214 87bd
00000130: 35f3 52bd 6cf6 8c3e 8596 303e b550 05bd
00000140: 43a5 193e 6314 a5be 47a5 a73e ac88 e7bd
00000150: aa7e 97be aa88 b7bd 698f 55be 3fc2 d5bd
00000160: a1f3 be3e 804a c73d 50e6 f13d 56e9 a93d
00000170: 9fee 24be 1f45 a7bc 4f4f a93d 3aae 9b3c
00000180: b561 ac3d b660 bbbe 6820 ae3a 1097 fabd
00000190: 501e 623d 2b29 3b3d 4d07 b8be 9ec3 63be
000001a0: 359d d3bd 2632 5e3e dc21 183f 565b d63d
000001b0: 76b7 d0be 5c49 35be acd5 debd 1a3a 3bbe
000001c0: 6de2 15be 56ff 113f 5a46 693d 56fb 8fbd
000001d0: bbfd acbe 1dea 77bd e9e6 e0bc dc35 543f
000001e0: 3976 0c3f 737a 5fbd fb80 783c 3b4c b8bc
000001f0: f7bf 0abe 824d 493d 4909 58be a02c 22be
00000200: dc00 8f3c e93b de3d 22dc 7abc a99d fabd
00000210: 1f2e 48bc 0e42 c8be 86cb 5a3e ff15 173d
00000220: 31ff 283e a3f2 e5bd 7a02 d8bd bbe3 b3bd
00000230: 2061 043e e657 d5bd 8c2d 0d3e a897 383e
00000240: 1b74 ba3d fa6f c6b9 1e74 393e fd5c d43d
00000250: 32ea 933a 1850 d6be 0cc6 09be 69b1 2d3e
00000260: 6a6d 4b3d 3c13 1f3e 8998 df3d 8491 c9bd
00000270: 341c cabd 4583 9c3d b107 3f3b 9b75 51bd
00000280: 0340 0f3e 73da 973e bb84 163e bc6f 4dbd
00000290: 138b 543d 11e2 b7bd 5dcb abbe 37e2 10be
000002a0: 544a 863e 5736 f4bd fbc9 3e3e 74c5 d6bc
000002b0: 0826 793e 89dd 1dbd 5248 7abd e63e 863e
000002c0: 0849 2cbd 077d 86bd 1517 16bd c175 30bd
000002d0: 9021 913d 5a6a 1b3e 7e8d 7dbc 995c 83bd
000002e0: 79c2 f23d 95c3 d8bd 596c b33c 1b9b ae3d
000002f0: acc4 3a3c 8f65 a43d ce65 043e 4a70 b03d
00000300: 57e2 12bc ee66 3ebe 57b9 fd3d b71a 103e
00000310: fa0c 393e fb44 823e e0af babc f635 193e
00000320: 9e92 41be 9d01 86bd c571 0e3e 3b65 7d3c
00000330: a500 8ebd 136c 47be 63a3 b4be d9b2 52be
00000340: 7ba5 17be b2e3 18bc 2d86 85bc 30c9 97bd
00000350: e0e2 103e 339e 463e 8909 0abe 5f99 c2be
00000360: 84bb 6bbe 70f2 5cbd 0e45 9abe b02d 5cbe
00000370: 487f 3d3d 3823 b1be fe2f 6cbb f724 433e
00000380: 573f b93b 7beb 65bc 50bd 5ebe 986b c63d
00000390: 11a0 863d 72c4 67be 95e4 dcbd 5fcb afbd
000003a0: 5e31 823d 5da9 abbd 0dbf 61be 225b a8bd
000003b0: 83c9 2b3e 0b07 533e bcfc 1bbe 6a29 e13d
000003c0: 4230 223e d153 b3be 463d 01bd 1614 dfbd
000003d0: 1659 d0bd 5097 213d 49a0 c2bd b53c 33bd
000003e0: 4870 60be 95eb 53be 5f7a c13d 6fdf 20be
000003f0: 171a 3e3c 42a4 d3bd cde4 863d cd4f aa3d

model/dense/BiasAdd/ReadVariableOp:0 f4 [128]
-0.067789875 -0.05386961 -0.112165995 -0.1436939 -0.04080362 -0.07713271 -0.06019877 -0.07372847
-0.00062544603 -0.078619346 -0.05874309 -0.040436886 -0.050165873 -0.060411893 -0.11527984 -0.10015529
-0.009072343 0.031642225 -0.04285127 -0.05695302 -0.055829737 -0.06893044 -0.03043537 -0.1311048
-0.096088946 -0.07633458 -0.030986525 0.019019822 0.0064821364 -0.07093074 -0.10143062 -0.17782107
0.03359053 -0.1861943 0.06598678 0.041517273 -0.056261227 -0.056736305 -0.14452283 -0.08895916
-0.14118497 0.018623814 -0.061259214 -0.15233712 -0.046806306 0.059800394 -0.046155967 -0.103315435
-0.02651504 0.030775037 -0.09388001 -0.08991116 0.053619076 0.01139579 0.07937657 -0.1125744
-0.08824666 -0.09444308 -0.0156223485 -0.06287515 -0.07008865 -0.07789509 0.04340292 -0.05450986
-0.049842928 -0.02777776 -0.019786399 -0.114394926 -0.19838892 -0.091848284 -0.03436836 -0.05693744
-0.07197571 -0.031207716 -0.033461343 -0.13967374 -0.065651715 0.070121214 0.02475196 -0.11400699
-0.020786785 -0.06353765 0.0131856855 -0.024842858 -0.0691162 -0.11701346 -0.09272671 -0.022830721
-0.10387531 -0.0116503835 -0.119311795 -0.034872774 -0.08344014 0.032888334 -0.0058561405 -0.06178449
-0.05635204 0.0495271 -0.07356785 0.017675526 -0.09734182 -0.023132192 -0.029008273 -0.062916316
0.036442585 -0.11707806 -0.060201846 -0.019048598 0.0370079 -0.078909285 -0.09473255 -0.0537531
-0.09663222 -0.06987121 -0.07978385 -0.094057135 -0.06027636 -0.0638894 -0.110856794 -0.103522874
-0.062729456 -0.04928085 0.031874295 -0.04490164 -0.085423544 -0.11078899 -0.07332283 -0.12899905
00000000: 6bd5 8abd 61a6 5cbd 49b7 e5bd 7e24 13be
00000010: b221 27bd c1f7 9dbd fc92 76bd f4fe 96bd
00000020: f9f4 23ba 2e03 a1bd 989c 70bd 26a1 25bd
00000030: bb7a 4dbd 7672 77bd d617 ecbd 371e cdbd
00000040: 2aa4 14bc 479b 013d d084 2fbd 9247 69bd
00000050: b9ad 64bd 672b 8dbd 9953 f9bc 5640 06be
00000060: 48ca c4bd 4e55 9cbd 74d7 fdbc 75cf 9b3c
00000070: 1a68 d43b 2344 91bd dbba cfbd ba16 36be
00000080: 3996 093d b8a9 3ebe 1424 873d 040e 2a3d
00000090: 2c72 66bd 5464 68bd cbfd 13be 3830 b6bd
000000a0: cb92 10be f890 983c f1ea 7abd 43fe 1bbe
000000b0: f8b7 3fbd 42f1 743d 0a0e 3dbd 0b97 d3bd
000000c0: 1236 d9bc ee1b fc3c 2a44 c0bd 5823 b8bd
000000d0: ad9f 5b3d 68b5 3a3c 2f90 a23d 688d e6bd
000000e0: aaba b4bd 606b c1bd e1f4 7fbc b0c4 80bd
000000f0: a38a 8fbd 7687 9fbd 43c7 313d bb45 5fbd
00000100: 1928 4cbd 2f8e e3bc 1617 a2bc e347 eabd
00000110: 7726 4bbe f41a bcbd d6c5 0cbd 3c37 69bd
00000120: 0068 93bd 53a7 ffbc c30e 09bd a206 0fbe
00000130: 6874 86bd b69b 8f3d 9fc4 ca3c 7f7c e9bd
00000140: 0c49 aabc 0720 82bd c608 583c 4083 cbbc
00000150: cb8c 8dbd c1a4 efbd 80e7 bdbd 7e07 bbbc
00000160: 94bc d4bd 40e1 3ebc be59 f4bd c1d6 0ebd
00000170: aae2 aabd ebb5 063d dee4 bfbb bc11 7dbd
00000180: 66d1 66bd eedc 4a3d beaa 96bd 44cc 903c
00000190: 265b c7bd b97f bdbc c2a2 edbc 45da 80bd
000001a0: d244 153d 9fc6 efbd 3696 76bd ce0b 9cbc
000001b0: 9995 173d 319b a1bd 2403 c2bd 362c 5cbd
000001c0: 1de7 c5bd a318 8fbd b765 a3bd 07a1 c0bd
000001d0: 58e4 76bd 72d8 82bd e308 e3bd cd03 d4bd
000001e0: 4d78 80bd b7da 49bd 9f8e 023d c8ea 37bd
000001f0: 8af2 aebd 57e5 e2bd 482a 96bd 5418 04be

model/conv1d/Conv1D/ExpandDims_1:0 f4 [25, 1, 1, 3]
-0.4413201 0.189083 -0.2794817 0.34406516 0.3841945 -0.346682 0.28339207 0.09391741
-0.64583087 0.30442935 -0.54527324 -0.013176025 0.0065098004 -0.26321587 -0.0015134986 0.009638406
0.22127885 0.38567922 0.41365173 -0.24219316 0.3037928 -0.19331363 0.018567659 -0.10584239
-0.028158784 -0.080044225 -0.20270965 0.30264446 -0.2646526 -0.43869442 0.3165912 0.40729603
0.17445084 0.0959942 0.4600405 0.25197086 0.24216044 -0.4393831 -0.12989002 -0.19355682
-0.61582637 0.34540623 -0.24286678 -0.12541632 0.00950744 0.35932603 -0.3949761 0.11394542
-0.41104516 0.28317374 0.27550465 -0.17932919 0.4727453 -0.43305904 0.018066904 0.2584291
-0.87352043 -0.21927054 -0.45988736 0.34244618 -0.013364015 0.0021491277 -0.2023385 0.40403995
0.09170004 -0.37023157 0.28946936 -0.1556435 -0.29754642 0.33709362 -0.28820017 -0.0487434
-0.58814013 0.39938778 -0.3229561
00000000: b5f4 e1be f99e 413e 3a18 8fbe 4f29 b03e
00000010: 24b5 c43e 4e80 b1be c418 913e c557 c03d
00000020: 2c55 25bf 2ade 9b3e 0797 0bbf 41e0 57bc
00000030: 2a50 d53b 3bc4 86be 9660 c6ba 68ea 1d3c
00000040: ec96 623e bf77 c53e 29ca d33e 7c01 78be
00000050: bb8a 9b3e 02f4 45be 341b 983c e5c3 d8bd
00000060: 40ad e6bc 3aee a3bd 1e93 4fbe 37f4 9a3e
00000070: 8c80 87be 8e9c e0be 3e18 a23e 1b89 d03e
00000080: 3ea3 323e 9b98 c43d 6e8a eb3e 5302 813e
00000090: e8f8 773e d2f6 e0be e401 05be c233 46be
000000a0: cca6 1dbf 16d9 b03e 12b2 78be 236d 00be
000000b0: 18c5 1b3c 95f9 b73e 4f3a cabe 375c e93d
000000c0: 8374 d2be 26fc 903e f20e 8d3e 12a2 37be
000000d0: ac0b f23e eab9 ddbe 0b01 943c d250 843e
000000e0: 099f 5fbf 7588 60be 5b76 ebbe 1b55 af3e
000000f0: bef4 5abc 61d8 0c3b d331 4fbe 53de ce3e
00000100: 3bcd bb3d fe8e bdbe 5435 943e 0261 1fbe
00000110: 0158 98be 8997 ac3e f98e 93be 29a7 47bd
00000120: 5a90 16bf 8e7c cc3e 805a a5be

model/batch_normalization/batchnorm/mul:0 f4 [1, 25, 1]
42.940487 25.673534 41.560932 38.35813 31.354422 22.662867 25.329544 31.38163
31.622776 31.821585 29.066637 23.277159 33.59006 44.28649 31.432743 27.284967
27.77779 31.360062 62.6276 45.864883 31.372053 25.51229 27.861399 23.627117
44.30784
00000000: 0fc3 2b42 6663 cd41 653e 2642 ba6e 1942
00000010: dbd5 fa41 8d4d b541 e8a2 ca41 940d fb41
00000020: 72fb fc41 9b92 fe41 7988 e841 9f37 ba41
00000030: 395c 0642 5e25 3142 4276 fb41 9d47 da41
00000040: ea38 de41 68e1 fa41 aa82 7a42 a475 3742
00000050: f7f9 fa41 2b19 cc41 25e4 de41 5604 bd41
00000060: 3a3b 3142

const_fold_opt__48 f4 [1, 25, 1]
0.071027555 -0.067175336 0.005429155 0.011663636 -0.008560506 -0.049016222 -0.04692449 -0.008630712
0.0 0.027378056 -0.11722736 0.019894034 0.028556332 0.004187276 -0.0074722357 0.00893687
-0.010005887 0.01563739 0.013354677 -0.0046318127 -0.008477169 0.0071153403 0.04511175 0.025808277
0.025269814
00000000: e576 913d 3993 89bd 0ee7 b13b d618 3f3c
00000010: 5d41 0cbc 3cc5 48bd e533 40bd d467 0dbc
00000020: 0000 0000 f247 e03c e614 f0bd d0f8 a23c
00000030: f8ee e93c 6b35 893b a8d9 f4bb f36b 123c
00000040: bbef 23bc fc19 803c 93cd 5a3c 76c6 97bb
00000050: d3e3 0abc cd27 e93b 19c7 383d e16b d33c
00000060: a402 cf3c

const_fold_opt__46 f4 [1, 25, 1]
-1.3892897 -0.77214813 -0.7776435 -0.60518324 0.002683229 -1.3128638 -1.149128 -0.004136838
-0.001964372 -0.4652691 -0.9674421 -3.554522 -0.5985072 -0.624212 -0.010125324 -1.4268206
-1.167907 -1.0333434 -0.5466359 -0.45653516 0.012407445 -1.3931913 -1.2236722 -1.2436757
-0.5840625
00000000: 3fd4 b1bf 80ab 45bf a513 47bf 4aed 1abf
00000010: 1dd9 2f3b ec0b a8bf a016 93bf 508e 87bb
00000020: b1bc 00bb c037 eebe 49aa 77bf 4a7d 63c0
00000030: c537 19bf 5ccc 1fbf b0e4 25bc 0fa2 b6bf
00000040: fa7d 95bf 9944 84bf 55f0 0bbf fabe e9be
00000050: 9948 4b3c 1854 b2bf 4aa1 9cbf c430 9fbf
00000060: 1f85 15bf
